checkpoint.pth (torch_old, 28393 bytes, 6 tensors)

fc1.weight f4 [64, 37]
00000000: 4c1a d63d 7247 8abd 05c0 70bd d99e a2be
00000010: d60e bdbe b6f5 30be 67fe 093e 506b a23e
00000020: 8a5f 98be a355 11be 5f21 27be 13b2 af3c
00000030: 739c aabd 858f e6bd c4f6 ffbd 237d 97bd
00000040: e78d f43d 3d41 12bd cd91 05be d603 aabd
00000050: 9f24 2a3e fe64 253d 8226 88bd 5848 64bd
00000060: eb66 3b3d 8a6b 11be 4907 893e 77d5 27be
00000070: db30 0abf 564b 9ebb 2bd0 1b3d 6100 61bb
00000080: 0158 93be 187d 1abe 2d74 dfbe fce7 75bc
00000090: 633b 83bc 2054 db3d a8bb 8f3d 66b9 643d
000000a0: 32e6 323c 8857 37be d4ff 05bd a401 e3bd
000000b0: 8a61 463c f0ca 5cbe bb21 cebe a69a 0abd
000000c0: ba8e a33d 5795 883d 0907 d83c c891 8a3d
000000d0: 8d8b 6f3d 5fe5 1abd 15bc 943d f2b5 b23b
000000e0: 229f bbba bea8 16be bfd2 a3bc a47c 0fbe
000000f0: 4d2b 4bbd e78b a43d 8982 c2bd 9ab8 693d
00000100: f76b b33d 7322 1f3d d1ce 02be f0c1 383d
00000110: 8737 343d edf9 173e 8adf eabb 196e 28bd
00000120: 8b9c 1b3e a14e 523d 27c0 01be fbed 993e
00000130: 86b8 ab3d 43ee 51be f7c5 bebd 434d 3fbf
00000140: 7cc1 3c3e e65c 023e 2c37 3d3d 28ce 9bbe
00000150: 4cc2 3abe 26a6 1e3e d257 2cbd 3cb4 16bd
00000160: 893e 033e b721 92be abf9 523d efc5 563e
00000170: 1389 983e a79d 523c 5d3f 5fbe 1745 c7ba
00000180: 37cb 013e 4911 143e d15d e23d 2208 dcbe
00000190: 5af4 de3b 2917 ca3e 2372 80bc 2ba9 e5be
000001a0: b448 96be f9f2 e83d 8554 e4bd 4ec3 85be
000001b0: 1811 01bd 7fd7 6fbc e9f0 efbc e7e9 953d
000001c0: 6f5a 42bc 3c04 d83d 21cd 82bd 176c db3d
000001d0: 470e 8cbe d611 473d b6b3 9f3e aaa0 51be
000001e0: 8f3c c4bf b1a6 eebd 8291 04bf dec1 4e3e
000001f0: 21c4 763d 998a adbe e4e2 99bd d236 4bbe
00000200: bd56 823b 9b1b 63be 610f 113e dcf3 a03d
00000210: 6bbd 473e 3494 ae3b 77c6 bf39 c115 b7be
00000220: 1436 e43c 3855 92bc 3df8 823c d194 fbbd
00000230: 0cf6 0dbe 767f dc3d 8c82 e73d 5225 303e
00000240: ec80 07bf 39a3 85bf 03f0 623d 55c4 a03b
00000250: 5983 4ebc 35c0 5bbe aa08 77be 6453 3fbe
00000260: 6044 ebbd 04b1 75bd 3c33 8a3e 37cb 20be
00000270: 03a0 45be 4440 be3c 9ac5 913c 9f5c dcbd
00000280: bdf3 acbd f01a 87be d0a9 02be 3cc1 6ebe
00000290: 882f 33bd 794a 04bd c679 54bc d23c 8d3e
000002a0: 87aa e7bd 98b6 01bd 00dc 78bc 9c10 923c
000002b0: 9b9c 443e cef4 f1bd 5a99 72bd f485 8a3d
000002c0: a29b 943d cbfb 213e a845 a63d 139c acbd
000002d0: 3cd0 34be 2880 c23d 70a1 df3e 1b3e 5dbb
000002e0: 030c bf3c 7177 e33b cbe7 24be 3692 2b3d
000002f0: 81cb 1a3d a118 963e d76d 8d3e e545 f6bc
00000300: 335b 62be 8968 17be 1445 7abf b5e5 733d
00000310: e728 2abe 41f9 eebd ff05 41be c9ab e3bd
00000320: 53b5 eebc a597 f3bd 490d 81bd 909c cb3d
00000330: f0c2 16bd 1eba f93a 3fb9 c53d c502 813c
00000340: f816 d83d 3f41 49bd 8467 78bd 2e4e e73d
00000350: 1272 5cbc ae78 a2bd a882 f83d 1ac8 463d
00000360: 6f85 5b3c 5590 8dbe 0914 943c d44c 72be
00000370: 3532 873c 6fb7 a23c b3ad e8bd 6cf5 2ebe
00000380: 4cf0 bcbc 4bd0 b03d 3c98 55be f103 19be
00000390: 1537 50be 320e c0ba b70b 873c b350 3f3e
000003a0: fb15 5abe 5bee ca3a 887d 3e3e a079 1f3e
000003b0: f01a 063e f049 d8bd a6e7 62be 9a00 613d
000003c0: 5e78 f03c 75df f13d db85 7ebe af33 3ebe
000003d0: d319 6b3e 73f1 9dbd c360 6f3e a4d9 3dbe
000003e0: 52dd 29be f20c 633c 9b0c 3fbe 1e9c a03e
000003f0: 1a6b 70bb 85e4 aabd 142d 21be 4958 213d
0.104542345 -0.06751908 -0.058776874 -0.31761816 -0.3692538 -0.17281231 0.13475953 0.31722498
-0.2976039 -0.14192824 -0.16321324 0.021447217 -0.083306216 -0.11257843 -0.12498239 -0.07396915
0.11941128 -0.035706747 -0.130439 -0.08301513 0.16615532 0.040379517 -0.0664797 -0.055733055
0.045752447 -0.14201179 0.2676337 -0.16390024 -0.539808 -0.004830758 0.03804032 -0.0034332501
-0.2877808 -0.15086782 -0.43643323 -0.015008923 -0.016019529 0.10709405 0.070182145 0.055840872
0.010919141 -0.17904484 -0.03271468 -0.11084297 0.012108216 -0.2156179 -0.4026011 -0.03383889
0.07986207 0.06669109 0.026370542 0.06766087 0.058482695 -0.0378164 0.07262436 0.0054538185
-0.0014314393 -0.14712808 -0.019997953 -0.1401239 -0.04960184 0.08034497 -0.09497554 0.057060815
0.08760827 0.038851213 -0.12774207 0.04510683 0.043998268 0.14841433 -0.007167761 -0.041120622
0.15196435 0.051344518 -0.12670957 0.30064377 0.083848044 -0.20501046 -0.093151025 -0.7472727
0.18433183 0.1273075 0.046195194 -0.30430722 -0.18238181 0.15493068 -0.04207594 -0.03679298
0.12816824 -0.28541347 0.051507633 0.20973943 0.2979208 0.01285497 -0.21801515 -0.0015203085
0.12675177 0.14459719 0.1105305 -0.42974955 0.0068040313 0.39470795 -0.015679425 -0.44855627
-0.29352343 0.11374468 -0.11148933 -0.26125568 -0.031510442 -0.014638781 -0.02928968 0.07320004
-0.011862381 0.10547683 -0.063867815 0.10713976 -0.27354643 0.048600994 0.31191796 -0.20471445
-1.5330981 -0.116528876 -0.5178453 0.20191142 0.060245637 -0.33894804 -0.07513979 -0.19845131
0.003977625 -0.221785 0.14166023 0.078590125 0.19505851 0.005327726 0.00036578227 -0.35758784
0.027857818 -0.017862901 0.01598751 -0.12284244 -0.1386339 0.10766499 0.11304197 0.17201737
-0.52931094 -1.0440437 0.055404674 0.004906217 -0.012604558 -0.2146004 -0.24124399 -0.18684155
-0.11487651 -0.05998327 0.26992214 -0.1570252 -0.19299321 0.023224004 0.01779442 -0.107598536
-0.08444927 -0.2638774 -0.12760091 -0.233159 -0.0437465 -0.032297585 -0.012968486 0.27585465
-0.113118224 -0.031668276 -0.015189171 0.017830186 0.19200365 -0.11814271 -0.05922828 0.06763831
0.07256247 0.15818708 0.081187546 -0.08428206 -0.1765756 0.094971 0.43677855 -0.0033758942
0.023321157 0.0069417288 -0.16104047 0.041887484 0.037791733 0.29315665 0.27622864 -0.030062625
-0.22105102 -0.14785971 -0.97761655 0.059545238 -0.16617166 -0.11668635 -0.18849944 -0.1111675
-0.029139197 -0.11894158 -0.06301362 0.09941971 -0.036807 0.001905266 0.096544735 0.01574839
0.10551256 -0.04913449 -0.060645595 0.112942085 -0.013454931 -0.07933174 0.12134296 0.048530675
0.013398512 -0.2764918 0.01807596 -0.2366212 0.016503433 0.019862859 -0.113612555 -0.17085809
-0.023063801 0.08633479 -0.20858854 -0.1494291 -0.20333512 -0.0014652668 0.016485078 0.18683128
-0.21297447 0.0015482412 0.18602574 0.1557374 0.13096213 -0.105609775 -0.2215868 0.054932214
0.02935427 0.11810199 -0.2485575 -0.18574403 0.2295907 -0.077120684 0.23376755 -0.18540055
-0.16588333 0.013858067 -0.18657152 0.31369108 -0.0036684931 -0.08344368 -0.15739852 0.039390836

fc1.bias f4 [64]
00000000: 8e2f c13d 8420 42bd b5ce 43be a171 34bd
00000010: 7cae be3d 22b4 5cbd 6bca 42be 5afa 0d3e
00000020: 3996 683d de11 31be ee52 843d dbe4 3f3e
00000030: 738b 053e 7010 253e 341d c4bd 6076 f6bb
00000040: 05bb 9b3b 701e 043d 8519 b03d ef8b 71be
00000050: da0e 05be d70d fdbc 64ab a63c 0b03 3dbe
00000060: b439 d6bd f4a9 c03c e9cd 90bd 0e2e 0fbe
00000070: 2e99 fc3d 1823 de3d 17da c23c 1d4c 41be
00000080: f89e d73d 10c5 b5bd 1739 39bd 253a b73d
00000090: ee8e 37bd bd5a c33c 9247 2b3b ac0e ccbd
000000a0: 2173 9cbd 48e9 76ba 0632 b4bd e3db 7b3e
000000b0: 30a7 703b 4449 31bd 572a 31bd ef01 16be
000000c0: 35de 2abe 5590 afbc 8a72 3dbe 98e0 0e3e
000000d0: 39f2 b2bd 17a7 4fbd af62 25be e8f2 883c
000000e0: 4daa 283d 5797 d2bd 7c6a d5bd 8e09 57bb
000000f0: 7bc2 d1bb 6e35 933d 1072 153d 5f0a acbc
0.094328985 -0.04739429 -0.19121821 -0.044053677 0.09310624 -0.053882726 -0.19022529 0.13865033
0.05678389 -0.17291972 0.0646113 0.18739645 0.13041477 0.16119552 -0.095758826 -0.0075214356
0.004752519 0.03225559 0.085986175 -0.23588537 -0.12993947 -0.030890388 0.020345397 -0.18458192
-0.10460225 0.02351854 -0.07070524 -0.13982412 0.12333904 0.10846537 0.023785634 -0.18876691
0.10528368 -0.08875477 -0.04522046 0.08946637 -0.044814043 0.023846978 0.0026135189 -0.09963736
-0.076391466 -0.0009418917 -0.08798604 0.24595599 0.0036720745 -0.043282762 -0.04325327 -0.14649175
-0.16686328 -0.021431128 -0.18500724 0.13952863 -0.087376066 -0.05069646 -0.16150926 0.01671739
0.041178036 -0.10282772 -0.10420701 -0.0032812092 -0.0064013577 0.07187925 0.03648573 -0.02100104

fc2.weight f4 [64, 64]
00000000: d207 ecbd 88d2 043d 5c2d 5d3e b631 9cbd
00000010: 5c21 aabd 5417 e5bd 1ad9 d0be bc70 9bbd
00000020: a8be 3fbe 79ba 80bc cd5b 8bbe 8020 31be
00000030: b005 50be e4cf d33d d959 5a3d 3770 90be
00000040: fe36 33bc 048d 96be 7454 25be f73a c03c
00000050: 5f85 98bd ed63 793e 47a8 123e 050b 31bd
00000060: af1d 0e3f 254b 0f3e e7b8 103e 2b63 053c
00000070: 65e4 943d f481 d63d 634a 99be 6b85 6ebb
00000080: dc80 213d e007 01be 4807 11bd 60bc 343e
00000090: 05ce bfbe eb2e 01bc 8fa1 2bbe 1228 38be
000000a0: 3d58 743d ab4d 8c3c f21a debb 2c9f 23be
000000b0: a053 493e 4b93 59be 5ff1 dcb9 0211 21be
000000c0: 9ebe 253d 20d9 193e dc7d eabd dc8e 9b3d
000000d0: 3401 ab3d e1e2 84be 037e 043e a0d6 1dbe
000000e0: f550 46be e7bc 003e 9bd0 2cbe 7b7e 03bd
000000f0: 9407 04bc 16a3 453d d498 17be c438 35be
00000100: a254 da3c bfd4 33bd ae0b 9fbe ff82 4d3e
00000110: bc52 453d 736c 853d eb08 41be 0f25 3c3e
00000120: 9a43 e5bc ffb8 42b9 f5c8 a4bc 0f41 773e
00000130: 9b13 11bb 4144 9e3d adf9 313c b833 c1bd
00000140: ae2d 9bbd 38ba e53d 8048 afbc 3e04 acbe
00000150: 5538 47bd 62e9 2ebe 7b2e 2b3e 4c0a 2a3a
00000160: 674d cbbe fe81 9b3c a67c f1bc bace a13b
00000170: 78b2 263d 0e39 2b3e ba44 9c3e 6705 a9be
00000180: 04ba ed3c 1c1b 233e 56ba dbbd 54f2 75be
00000190: 1b0c 7cbd aad6 863e 2bbf 713d 9ad1 36be
000001a0: 0bc2 d4bd d60a d33c 2f21 03bc a79d 75bd
000001b0: 46f0 0dbe 1cdf 4bbe 5354 49bd a839 91bd
000001c0: ac32 5bbb c052 0bbe c7f7 9ebd acf0 8e3d
000001d0: f5e9 45be bbc6 6d3e 3cd8 af3d 729e 2b3d
000001e0: 49c3 c2bd e229 b9be 9ed8 6d3b dc3e ebbd
000001f0: e191 3bbe 6bc8 57bd 92f1 92be 470d 15bd
00000200: b1fa 8abc abd0 15bd d9c4 0fbe e630 51be
00000210: 18a1 4a3d 5d48 ca3d 1b33 03bd 0166 88bc
00000220: 861a ae3d 4337 243c 46be 1bbd 24ce 653e
00000230: 5dd9 0b3e c7e2 183e f276 b0bd e551 373e
00000240: 96f1 86bc 02e3 3a3e 2640 963d f40a 22bd
00000250: ebd1 73bd 9d6f 1c3e d084 8b3e 6f1f bb3c
00000260: 38ca 49bc c24d ccbd 20eb f73d e1b4 543c
00000270: 61fc 1dbe fc1b 813e 1902 103e a219 3aba
00000280: 37d8 14be 46b4 1abe 59ce f3bc f0f3 2a3e
00000290: 7f2c 253e e622 543e b600 883e e08a 483c
000002a0: 2484 b43e f2ff c33d 6668 62bd b7d3 90bd
000002b0: 9ec3 b9bc 2647 d43d 9da6 9dbd a986 41be
000002c0: 5a2d a5bd 06ab 2dbe 0ee5 72bd e46a e33d
000002d0: 5a56 34bd 4383 5a3e abe6 aabe bb32 e83d
000002e0: b0df adbd 3c42 27bd 36f6 283e 828f 20be
000002f0: fe87 863c 7a87 8d3b 956b 833e d943 383e
00000300: 1510 c13d acac df3d d112 4b3e 483b b7be
00000310: b861 1bbd 3803 3abe 183c 54be 2db8 6bbe
00000320: ba6b 93be f873 863d 7345 8bbe b29e 82bd
00000330: 2f47 96be 06b8 f83d 2d83 19be ce9a 52be
00000340: 3bcc 733d 81e1 1fbe 53da bcbc e0e8 993d
00000350: fc9e 3f3e 603f bd3d af7c 15be aa61 0f3e
00000360: 957e c7be 46b7 5f3d 5ba4 733e 16db 863c
00000370: 92d8 afbd 84b1 37bf 5293 81be 7757 c5bd
00000380: df3b a8bd abc9 e4bd f0fe 0abe de92 803e
00000390: 3ae4 cbbd ad27 d93c 24e1 1e3f 12c5 013e
000003a0: 1476 fabe a7b6 febc 4d74 80bd da85 a8bd
000003b0: cda0 99bd 7a50 03be 8f36 b4bd 309f 87be
000003c0: 9d07 9d3d 7c84 09bc 4b0b 81be 360f 65be
000003d0: 09dd 713d 2447 68be caa2 14bd 1ca9 08bd
000003e0: d873 98be 98a9 87be 350a f7bc c615 5ebc
000003f0: cb1c 113d 48ff ffbd 3f75 b4bd 643d 0cbd
-0.11524929 0.03242734 0.21599334 -0.07626669 -0.08307144 -0.1118609 -0.40790635 -0.07589862
-0.18725073 -0.015713917 -0.27218476 -0.17297554 -0.2031467 0.10342386 0.05330834 -0.28210613
-0.010938404 -0.2940446 -0.16145498 0.023465617 -0.074473135 0.24354525 0.14322005 -0.0432234
0.55514044 0.13993509 0.14133035 0.008141319 0.07270125 0.10474005 -0.29939565 -0.0036395441
0.03942953 -0.1260066 -0.035407335 0.17649984 -0.37461868 -0.007884721 -0.16760848 -0.17984036
0.059654463 0.017126879 -0.0067781145 -0.15978688 0.19660807 -0.21247594 -0.00042141505 -0.15729144
0.04046499 0.15024233 -0.11449787 0.07595608 0.08349839 -0.25954345 0.12938695 -0.15413904
-0.1936682 0.1257206 -0.16876452 -0.032103043 -0.008058447 0.048251234 -0.14804393 -0.17697436
0.026651684 -0.043904062 -0.31063598 0.20069502 0.048174605 0.06514826 -0.18851058 0.18373512
-0.027986336 -0.00018570198 -0.020115355 0.24145912 -0.002213693 0.07727862 0.01086275 -0.09433693
-0.07577072 0.11217159 -0.021396875 -0.33596987 -0.048637707 -0.17081216 0.1671695 0.00064865197
-0.3970749 0.018982884 -0.029478382 0.004937974 0.040697545 0.16720983 0.30521184 -0.33011934
0.029019363 0.1592831 -0.107289 -0.24018222 -0.061534982 0.2633565 0.059020203 -0.17853394
-0.10388573 0.025762003 -0.008003517 -0.059964802 -0.13861188 -0.19909328 -0.049152683 -0.07091075
-0.003344695 -0.13605785 -0.077621035 0.06979498 -0.19327529 0.23220341 0.08586165 0.041899152
-0.09509904 -0.36164767 0.0036292444 -0.11486599 -0.18317367 -0.052681368 -0.2869993 -0.036389615
-0.016965242 -0.036575954 -0.14039935 -0.2042881 0.049470037 0.098770835 -0.03203116 -0.016650202
0.08501153 0.010022941 -0.038023256 0.22441918 0.13657136 0.14930259 -0.08616437 0.17902334
-0.016472619 0.18250659 0.07336454 -0.039561227 -0.059526365 0.15276952 0.27249765 0.022842137
-0.012316279 -0.099757686 0.121053934 0.012982578 -0.15428306 0.25216663 0.140633 -0.00070991565
-0.14535604 -0.15107831 -0.02976148 0.16694617 0.16130255 0.20716438 0.26563042 0.012240142
0.35257065 0.09570302 -0.055275343 -0.070716314 -0.022676285 0.10365133 -0.076977946 -0.18899025
-0.08065291 -0.16959772 -0.059300475 0.11104372 -0.044027664 0.21339135 -0.3337911 0.11337801
-0.08489931 -0.04083465 0.16500172 -0.15679744 0.016422268 0.0043191286 0.25668016 0.17994632
0.094268955 0.109216064 0.19831397 -0.35787416 -0.03793499 -0.1816529 -0.20726049 -0.23019476
-0.28793126 0.06565088 -0.27201423 -0.06377925 -0.29351184 0.12144475 -0.14991446 -0.20566866
0.05952094 -0.15613367 -0.023053324 0.075151205 0.18712991 0.092406034 -0.14598344 0.140021
-0.38963762 0.054618143 0.23793165 0.01646189 -0.085862294 -0.7175524 -0.2530771 -0.09635823
-0.082145445 -0.111712776 -0.13573813 0.2511205 -0.0995564 0.026508177 0.6206229 0.12672833
-0.4891821 -0.031092955 -0.062721826 -0.08228655 -0.075013734 -0.12823668 -0.08799469 -0.26488638
0.07667468 -0.008393403 -0.25203928 -0.22369084 0.059048686 -0.22683388 -0.03628806 -0.0333644
-0.29775882 -0.26496577 -0.030156234 -0.013554996 0.03542785 -0.12499863 -0.088114254 -0.034238234

fc2.bias f4 [64]
00000000: 303a 91bd 1dc5 073d d4d7 523e 7368 eb3c
00000010: 83a9 a63e 8cf5 efbd 18ef e7bb e246 3bbd
00000020: f6f8 a83e e7b9 ff3e e8a5 15be 2bce 9e3d
00000030: e779 a73e 71f6 1cbd e432 9dbd 0483 f83d
00000040: de0e 3a3d 4b97 94bd f980 97bd 5614 933e
00000050: 19a0 ba3e b3c9 b73e 9e68 e0bd 839c f4bd
00000060: ee67 3ebd a0b9 e0bd ef89 003e 9ea7 17bd
00000070: 7651 f0bd 7523 7e3e 70c5 f33d daf4 8d3c
00000080: 86ce a7bd cb7c 763e 28e5 363d a6c6 c9bd
00000090: ecdb 8ebd a3c9 35be 7954 13bd 3bd1 8d3c
000000a0: 7e76 95bd 393c 0f3f 835c d93e 011a 06be
000000b0: 016b b33c 72b0 ddbd cdde be3e 89ef 16be
000000c0: 65fb c43d 5285 723d e298 4abe 5571 e33e
000000d0: b226 d1bc b415 5fbd 5abd 8a3e 84bc 72bd
000000e0: 3ce4 82be 4d32 18be 6b5c e13d c769 c53c
000000f0: 7068 4bbd 41e3 573e 60db 093e bd9d 293d
-0.070911765 0.033146966 0.20590144 0.028736329 0.32551202 -0.11716756 -0.0070780627 -0.045721896
0.33002442 0.4994652 -0.1461407 0.07754167 0.32710192 -0.038320962 -0.07675722 0.12134364
0.045424335 -0.07255419 -0.073976465 0.28726453 0.3645027 0.35896072 -0.10957454 -0.11943915
-0.046485834 -0.10972905 0.12552617 -0.037025087 -0.117342874 0.24818213 0.119028926 0.017328668
-0.08193688 0.24071042 0.044652134 -0.09852342 -0.069755405 -0.177527 -0.03596923 0.017311683
-0.07297991 0.5595127 0.42453393 -0.13095857 0.02190161 -0.1082467 0.37279359 -0.14739813
0.09618262 0.059209175 -0.19784883 0.44422403 -0.025531147 -0.054464057 0.2709759 -0.059261814
-0.25564754 -0.14862938 0.110039555 0.02409829 -0.049660146 0.21082784 0.13462591 0.041410197

fc3.weight f4 [4, 64]
00000000: f395 9dbd 505e 2f3d cfac 283e b79d 5e3d
00000010: a958 103e ecaf 153f 553c d93d cdae d3bd
00000020: 5515 203e 5d7b 123e fd81 8abd 623c 883c
00000030: c986 013e e6e6 5bbe abde 08bd 1180 eabd
00000040: 0f01 123f 1ce8 02be a6ed b4bd 54a0 123e
00000050: 0ea5 0e3e e3d1 543e 882e 1ebe dd2d 6dbc
00000060: 0cd2 b53e c809 02be f3c2 08bf 98c5 66be
00000070: 6ce5 103e 1558 993d cb0d 09bd 217a c93d
00000080: 7441 d43e 3c8c 423e a69d 05bc eb88 2fb9
00000090: 1d6a 013e 2f0e a6be 33d9 533d 3ce5 a73d
000000a0: d952 8a3d b5f9 2b3e 43e4 e33d 3d49 a8bd
000000b0: 0704 943d 4df4 7e3c 2aa3 5e3e b3eb ca3e
000000c0: 5483 f23e 6063 893e f5e9 19be e519 8e3e
000000d0: 6024 033e 90b8 18bf 209e 403e 41b9 ac3d
000000e0: ccd4 8ebe a88a 45be 8c99 c03e a6ae ea3d
000000f0: f794 abbe 55d3 373e 7e5f 1fbe 30aa 2a3e
00000100: a2f7 4d3e 3602 173e ff57 e33d c312 b63e
00000110: bb63 103e 1174 763e d763 7a3e dbe6 d2be
00000120: f77a f43b 5f8a 323e f0a2 2b3e a2f4 86bd
00000130: 8c27 c23d ea30 8e3e 60de a5bc 8716 503d
00000140: 8eca ce3e c3b9 933e 2064 b2be 9b33 b53d
00000150: 0374 603e c0e4 843e 0bfc 6cbe 9028 c53d
00000160: 3f45 d43e 3224 f2bc 25b5 243d 5c55 3fbe
00000170: edf7 6a3c 2ca5 0b3e 2b79 90be 7eeb 763e
00000180: d140 d73e 0064 a73d cbd6 373d 2499 73bd
00000190: a9e3 833e 9707 8bbe 4f50 863d df92 b83d
000001a0: 2ef9 b63d 2339 333e 2fb3 cb3d e917 cebd
000001b0: 7094 62bd 83fd 4abe dc4f 433e c3b2 2e3f
000001c0: 9de2 e73e c121 5b3e 9e04 a8bd 8d1b 203e
000001d0: 7cb2 c13d a250 d63d fe37 623e 39c4 de3e
000001e0: 8d91 37be 6b64 37be df1e b13e 219c ac3d
000001f0: 6f36 9fbe c310 e73d 0125 1d3e 61a3 463e
00000200: 4469 c8bc a3d1 383e edf5 4a3e 18ef e03e
00000210: 036b 423e 09ad 653e 3d90 e53e 6e4c 65be
00000220: 0be0 b83d 2dea 0b3e 9843 19be b2a5 a33e
00000230: df2d 543e 9d47 88be 665c 98bd 3ce8 233e
00000240: c440 c83e 0ed0 2dbf 9b4c bebe 108e 253e
00000250: 311e c63d 0d21 aa3e cb58 b2be 8b6b cd3c
00000260: cd6c 483e 9be1 2e3d 5df6 df3c 0b46 bcbe
00000270: 559f ba3e 223c b43e bfa4 093e bf5e 4bbd
00000280: ad11 23bd ec8c 8f3d 6447 963e 2e4f cd3d
00000290: a26e 263e bb1a acbe 9344 aabe 0c3b 203e
000002a0: 4240 313f b37e 233e 8c0f 293e 3031 893c
000002b0: 5694 4e3e 30a8 eabc c742 213e c8c5 213f
000002c0: 6a0a fe3e 10ca 093e 844c 6bbd 00cb c23e
000002d0: 6d9f 5fbe cd90 fdbd 10e9 c93d 55e5 07be
000002e0: c69a a8bd 16fe 1cbe 3050 fe3d dab0 4e3e
000002f0: 459b d5be 3f3a 073e 6147 93be 31cf cd3d
00000300: 471f 183f df00 9a3e a627 debb bcab aabe
00000310: 3298 053e b02a 3e3f 0045 4c3e 34c7 183d
00000320: 6163 bf3d 2fcb 693e 339d 033d 8058 80be
00000330: daa2 f03d 2a03 d6bd 430c 563d 5954 0d3e
00000340: 736c 1f3e 331c d83d 779c a5bd 0e26 0b3e
00000350: 3d03 ac3d 89c8 923e 049b ac3d f159 923d
00000360: 22b8 073f 797a a9be 23a2 20bf 70f2 97be
00000370: ee29 823e fe37 aabc 96b5 3ebf 4b89 363e
00000380: c3ad bbbd cfcd 043e 408b f63d 0380 7e3c
00000390: 8be4 423e 8bde a2bd c87c 6b3e fcfa 593e
000003a0: 3412 273e 4274 7b3e 7524 543e 4ca4 b0be
000003b0: 6e2e 093f 3845 afbe 7669 103e 9564 3dbe
000003c0: 31ba 813e 12f2 ec3d 8670 083e d7f9 873e
000003d0: 84d1 7b3e cc7c 95bd e93a 233e 8675 543f
000003e0: bed6 bebe 239e 73be 565a 933e 09b1 86bd
000003f0: a474 4bbe 5c8f ca3d 0f60 cebe 1158 513e
-0.07694616 0.042814553 0.16472171 0.054349627 0.14096321 0.5847156 0.106072105 -0.10336075
0.15633138 0.14304872 -0.067630745 0.016630355 0.12649073 -0.214748 -0.033415478 -0.11450208
0.57032865 -0.12783855 -0.0883439 0.14318973 0.13930151 0.2078319 -0.15447438 -0.014476267
0.35511816 -0.12699044 -0.5342247 -0.22536314 0.14150017 0.074875034 -0.03346042 0.09837747
0.41456187 0.18998808 -0.008155262 -0.00016740306 0.12638135 -0.32432696 0.05172081 0.0819802
0.06754083 0.16794474 0.11127522 -0.08217094 0.07227331 0.0155611755 0.2174193 0.3963295
0.4736582 0.2683363 -0.15030654 0.2775413 0.12806845 -0.5965662 0.1881032 0.08433772
-0.27896726 -0.19291174 0.37617147 0.11459093 -0.3351209 0.1795171 -0.15563771 0.16666484
0.20113996 0.14746937 0.11100768 0.3556119 0.14100544 0.24067713 0.24452148 -0.41191754
0.0074609476 0.17435597 0.16761374 -0.06589629 0.09480199 0.27771693 -0.020247638 0.050802734
0.40388912 0.28852662 -0.34842014 0.088477336 0.21919255 0.25955772 -0.23143022 0.09626877
0.4145908 -0.029558275 0.040211815 -0.18684906 0.014341337 0.13637227 -0.28217444 0.2411327
0.42041638 0.0817337 0.044882577 -0.05947222 0.25759628 -0.27154228 0.065582864 0.090123884
0.08934246 0.17502265 0.09946286 -0.10063154 -0.055317342 -0.1982327 0.19073433 0.6824152
0.4529008 0.21399595 -0.08204006 0.1563551 0.09457871 0.10464598 0.22091672 0.4350908
-0.17926617 -0.179094 0.34593865 0.08428217 -0.31096217 0.11282494 0.15346147 0.19398262
-0.024464257 0.1804872 0.19820376 0.43932414 0.18986134 0.22429289 0.44836608 -0.22392437
0.09027108 0.1366355 -0.14967191 0.31962353 0.20720623 -0.26617137 -0.074394986 0.16006559
0.39111912 -0.6789559 -0.3716782 0.16167474 0.09673727 0.3322834 -0.3483337 0.025075695
0.19572754 0.042695623 0.027339155 -0.3677219 0.36449686 0.35202128 0.13441752 -0.049650904
-0.03981178 0.070093006 0.29351342 0.10024868 0.1625314 -0.33614144 -0.33255443 0.15647525
0.69238675 0.159663 0.16509837 0.016747087 0.20173773 -0.028644651 0.1574813 0.63192415
0.4961732 0.13455987 -0.057446018 0.38045502 -0.2183816 -0.12381134 0.09858906 -0.13271077
-0.08232646 -0.15331301 0.12417638 0.20184651 -0.41720024 0.13205813 -0.28765395 0.10049284
0.59422725 0.3007879 -0.006779629 -0.33334148 0.13046339 0.74283886 0.19948196 0.03729935
0.09345127 0.22831415 0.03213234 -0.2506752 0.117498115 -0.10449822 0.052257787 0.13801707
0.15568714 0.105522536 -0.08086484 0.13588735 0.08399055 0.2866862 0.084280044 0.07146061
0.5301534 -0.33101252 -0.627474 -0.29677153 0.25422615 -0.020778652 -0.7449583 0.1782581
-0.09164002 0.12969135 0.120382786 0.01553345 0.19032495 -0.07952603 0.22996819 0.21287149
0.16315538 0.24556068 0.20717032 -0.3450035 0.5358647 -0.34232497 0.1410273 -0.184954
0.25337365 0.11569609 0.13324174 0.265578 0.24591643 -0.07299194 0.15940441 0.82991827
-0.3727321 -0.23790793 0.28779858 -0.065767355 -0.19868714 0.09890625 -0.40307662 0.20443751

fc3.bias f4 [4]
00000000: 1423 b33e b251 a43e b2f4 593e 49cd 6b3e
0.349877 0.3209358 0.2128475 0.23027529
