TrainedAgent/checkpoint.pth (torch_old, 28333 bytes, 6 tensors)

fc1.weight f4 [64, 37]
0.1455254 -0.087303124 -0.776577 -0.3456611 -0.23721507 -0.012716046 0.17954268 0.0012577007
-0.54882324 -0.04730916 0.11438307 -0.06532766 -0.26681465 -0.64763486 -0.60467815 -0.15152656
0.09600311 0.16504006 -0.29308993 0.3781104 -0.072210476 0.020975338 -0.012121538 0.0028083976
0.39479187 -0.023168024 0.07721018 -0.20318438 -0.19621256 -0.22712195 0.17216122 -0.5857181
-0.30473652 -0.48339713 -0.33118874 -0.193643 -0.055473182 -0.044960972 0.047355976 -0.050116666
-0.115183026 -0.13334446 -0.53524935 -0.23879486 -0.141555 0.009988833 -0.35311776 -0.00064623577
-0.12361328 -0.10531867 -0.1287 -0.08884973 0.059044775 -0.22532113 -0.058016032 -0.15661915
-0.06927388 -0.22885548 -0.11989334 -0.25268692 -0.27569675 0.033030245 -0.13354789 0.019167602
-0.21147713 -0.22386634 0.18641599 -0.22888961 -0.06927452 0.033318155 0.01013618 0.023257224
0.05623596 0.11827454 -0.009694477 0.017725395 0.19524138 -0.22887328 -0.02149708 -0.73958653
0.13507988 0.14479648 0.10540319 -0.47683007 -0.012140681 -0.22080316 0.09079276 -0.01734137
-0.020649128 0.3545075 -0.5411308 0.18811014 0.008524393 -0.2886101 -0.49655885 0.042355597
0.25415114 0.027459411 -0.9197424 -0.31103456 0.29096845 0.030021567 -0.029379943 -0.6807158
-0.60257834 0.1901411 -0.18673787 -0.19137459 -0.2227431 -0.10113363 0.034200806 0.12476348
-0.5128018 0.25988546 -0.040084016 -0.54109967 -0.44201922 0.111680254 0.18508656 -0.022541909
-1.174649 -0.18311702 0.13070399 -0.031488262 -0.4815077 -0.18833256 -0.044814676 -0.24958408
0.013668249 -0.31313777 -0.49116793 0.016176583 -0.0699741 -0.013134138 -0.12403975 -0.021443073
-0.3879497 -0.22205958 0.11965825 0.29834133 -0.9795482 -0.41018733 0.14708857 0.03316236
0.17811815 -1.0929425 0.012508055 -0.06632449 -0.13924614 -0.15091214 -0.19912714 -0.2819608
-0.15618727 -0.04824793 0.041491687 -0.037578143 -0.4138083 0.058679562 -0.08594408 -0.14130774
-0.09314428 -0.13881855 -0.2991493 -0.046036594 -0.0071715815 -0.23400654 -0.19762021 0.167325
0.032129344 -0.20488772 -0.2964791 -0.02785853 -0.06281622 -0.0030961137 -0.39288425 0.014342881
0.019062033 0.1900755 -0.16534048 0.13311124 -0.2797453 0.18853751 0.3378369 -0.12058293
0.06821024 -0.079906374 -0.1172753 -0.17141505 0.10904437 0.12599963 0.18834896 0.14669932
-0.54630363 -0.3575266 -1.3114072 -0.18282709 -0.14355381 -0.08077879 -0.051734366 -0.33275843
-0.18481302 0.16040748 -0.03554971 0.10590199 -0.13612466 -0.025495538 0.23114872 -0.29449224
-0.097758755 -0.06325794 -0.26428854 0.23273103 0.009504591 -0.28307968 -0.4020572 -0.053818505
0.15851803 -0.093590006 -0.21120101 -0.4908172 -0.20456883 0.048160013 0.11047801 -0.11627041
-0.0036488108 -0.100127555 -0.51100487 0.009837885 0.020826722 -0.27162158 0.13254166 0.22085693
-0.0436146 -0.08466002 0.26902094 0.0051329993 0.10823968 0.030017022 -0.07458751 -0.108022906
-0.085530065 -0.16255812 -0.54171115 -0.13696805 0.29128188 0.24515548 -0.13914773 0.0137524335
0.20773724 -0.5844568 -0.0381024 0.12572531 -0.05384406 0.08909444 -0.31884262 0.23216704
00000000: 9c04 153e fbcb b2bd c0cd 46bf 7efa b0be
00000010: 82e8 72be f656 50bc 09da 373e 6fd9 a43a
00000020: ae7f 0cbf 40c7 41bd ac41 ea3d 82ca 85bd
00000030: ee9b 88be 66cb 25bf 30cc 1abf c729 1bbe
00000040: 479d c43d 4300 293e e20f 96be b097 c13e
00000050: 16e3 93bd 79d4 ab3c 6a99 46bc 180d 383b
00000060: 2922 ca3e deca bdbc 5f20 9e3d 910f 50be
00000070: f2eb 48be a892 68be 084b 303e 9ff1 15bf
00000080: 6d06 9cbe d47f f7be 9291 a9be 5a4a 46be
00000090: d937 63bd ff28 38bd 57f8 413d 2247 4dbd
000000a0: 14e5 ebbd 738b 08be 1a06 09bf a486 74be
000000b0: cbf3 10be 34a8 233c dacb b4be 2668 29ba
000000c0: f628 fdbd 51b1 d7bd efc9 03be d9f6 b5bd
000000d0: efd8 713d 95ba 66be 38a2 6dbd c560 20be
000000e0: 77df 8dbd 1759 6abe a48a f5bd 2e60 81be
000000f0: 2028 8dbe b94a 073d c7c0 08be 6005 9d3c
00000100: 768d 58be 383d 65be d5e3 3e3e 0a62 6abe
00000110: cddf 8dbd 9e78 083d 3812 263c ef85 be3c
00000120: ae57 663d ec39 f23d 95d5 1ebc d934 913c
00000130: 5bed 473e c25d 6abe a51a b0bc 8b55 3dbf
00000140: 6152 0a3e 8745 143e a1dd d73d 1223 f4be
00000150: b5e9 46bc 391a 62be 8ef1 b93d 7d0f 8ebc
00000160: 5c28 a9bc 0282 b53e 8c87 0abf f29f 403e
00000170: e5a9 0b3c b4c4 93be f63c febe 107d 2d3d
00000180: 1920 823e 8ff2 e03c 3d74 6bbf ec3f 9fbe
00000190: d1f9 943e caef f53c 35ae f0bc 6443 2ebf
000001a0: 9342 1abf 59b4 423e 3638 3fbe b3f7 43be
000001b0: c416 64be 261f cfbd 2516 0c3d ff83 ff3d
000001c0: fb46 03bf b50f 853e 232f 24bd 8285 0abf
000001d0: 5850 e2be 9eb8 e43d 5587 3d3e cfa9 b8bc
000001e0: e65a 96bf 0783 3bbe 44d7 053e d6f9 00bd
000001f0: 2d88 f6be 40da 40be 988f 37bd f892 7fbe
00000200: cbf0 5f3c 9853 a0be 5d7a fbbe c184 843c
00000210: 954e 8fbd 9130 57bc 8d08 febd 62a9 afbc
00000220: 58a1 c6be 9663 63be 620f f53d 32c0 983e
00000230: acc3 7abf 1304 d2be 639e 163e 41d5 073d
00000240: 9b64 363e 8ae5 8bbf 96ee 4c3c 22d5 87bd
00000250: 8a96 0ebe b688 1abe fce7 4bbe 2a5d 90be
00000260: 8eef 1fbe 9f9f 45bd 30f3 293d 8aeb 19bd
00000270: aede d3be fb59 703d 7303 b0bd fab2 10be
00000280: 6ec2 bebd 7326 0ebe 192a 99be de90 3cbd
00000290: 96ff eabb 699f 6fbe f45c 4abe 3f57 2b3e
000002a0: 0f9a 033d 16ce 51be 1ccc 97be 9237 e4bc
000002b0: caa5 80bd 2be8 4abb 2028 c9be 67fe 6a3c
000002c0: fb27 9c3c 27a3 423e 044f 29be 504e 083e
000002d0: c73a 8fbe fa0f 413e f5f8 ac3e 2ff4 f6bd
000002e0: cfb1 8b3d f4a5 a3bd 082e f0bd 6d87 2fbe
000002f0: a852 df3d 0c06 013e 8dde 403e 5938 163e
00000300: 8eda 0bbf ba0d b7be 31dc a7bf 0637 3bbe
00000310: c5ff 12be 5a6f a5bd 6ae7 53bd 505f aabe
00000320: a03f 3dbe dc41 243e 939c 11bd 24e3 d83d
00000330: 4364 0bbe 05dc d0bc 40b2 6c3e b0c7 96be
00000340: be35 c8bd 618d 81bd d450 87be 0b51 6e3e
00000350: 25b9 1b3c d2ef 90be 71da cdbe cb70 5cbd
00000360: 8d52 223e 1eac bfbd 1445 58be 644c fbbe
00000370: 7e7a 51be 6f43 453d 4b42 e23d 2e1f eebd
00000380: e320 6fbb ad0f cdbd 37d1 02bf 152f 213c
00000390: cd9c aa3c fc11 8bbe 00b9 073e 5228 623e
000003a0: 39a5 32bd 3c62 adbd 1dbd 893e b832 a83b
000003b0: c4ac dd3d 42e6 f53c 56c1 98bd 1d3b ddbd
000003c0: 632a afbd a375 26be 95ad 0abf 5a41 0cbe
000003d0: e622 953e 0a0a 7b3e be7c 0ebe e351 613c
000003e0: 12b9 543e f69e 15bf 4311 1cbd 23be 003e
000003f0: 978b 5cbd 2577 b63d 573f a3be 32bd 6d3e

fc1.bias f4 [64]
0.060074814 -0.30619597 -0.1551927 -0.120263025 -0.050548736 -0.05076739 -0.06151864 0.05411193
0.12599923 -0.14438668 0.12045259 0.23104133 0.017590985 0.30772945 -0.08447346 -0.15724063
-0.042212248 0.027999159 -0.007653277 -0.425296 -0.21208957 -0.09857992 -0.028903669 -0.2090247
-0.12588486 0.18227914 -0.004688319 -0.20954044 0.14112215 0.094080694 0.05336106 -0.033817884
-0.009471554 -0.059136912 -0.12768625 0.014042525 -0.06685132 0.089680955 -0.033477787 -0.046800017
-0.12044948 -0.04854981 0.08314633 0.13253587 -0.013206979 0.0029557776 0.019754013 -0.2632702
-0.20849127 0.06672222 -0.2449152 0.12510277 -0.21218501 -0.077310525 -0.18290721 -0.048472773
0.11917794 -0.09349946 -0.1418058 0.018011997 0.010039789 0.009462922 -0.022239633 -0.0343943
00000000: 0211 763d b8c5 9cbe d6ea 1ebe 764c f6bd
00000010: 310c 4fbd 77f1 4fbd f8fa 7bbd 79a4 5d3d
00000020: f105 013e 1ada 13be d9af f63d 1996 6c3e
00000030: f81a 903c b78e 9d3e 6c00 adbd b003 21be
00000040: c0e6 2cbd 7e5e e53c 57c8 fabb 66c0 d9be
00000050: 022e 59be 45e4 c9bd 63c7 ecbc 920a 56be
00000060: f6e7 00be 62a7 3a3e 78a0 99bb c591 56be
00000070: 5382 103e 61ad c03d 2091 5a3d 9f84 0abd
00000080: 942e 1bbc 8c39 72bd 2fc0 02be 9e12 663c
00000090: 58e9 88bd a6aa b73d 0120 09bd 60b1 3fbd
000000a0: 38ae f6bd 2adc 46bd a048 aa3d 7cb7 073e
000000b0: 1662 58bc b8b5 413b 2bd3 a13c 5acb 86be
000000c0: bc7e 55be a9a5 883d 0dcb 7abe f11a 003e
000000d0: 0747 59be fb54 9ebd 074c 3bbe 638b 46bd
000000e0: 9013 f43d a57c bfbd 8a35 11be e58d 933c
000000f0: ed7d 243c 5f0a 1b3c e42f b6bc 0ae1 0cbd

fc2.weight f4 [64, 64]
0.14931493 0.0052322033 0.27812847 -0.52963895 -0.6981241 -0.34220874 -0.3301063 -0.2942781
0.19540128 0.14802346 -0.5060336 -0.77245003 0.054346215 0.071969025 -0.9108695 0.13819359
-0.26263335 0.24257705 -0.16996707 -0.08660651 -0.36682403 -0.10702771 -0.057036262 -0.0026378238
-0.46610114 0.050522923 0.022468615 0.017767962 0.7182071 0.56913674 -0.6199407 0.011534509
-0.20519155 -0.07194113 -0.25416526 0.23197383 -0.35689774 0.056833204 -0.25413954 -0.6543554
-0.33322322 -0.41938668 0.11034762 -0.1806437 0.14271589 -0.09112825 -0.4099724 0.20205271
-0.7924295 -0.33764428 -0.28801072 0.38718396 -0.79832345 -0.49937883 -0.158953 -0.35503793
-0.41879985 -0.122964315 -0.01807863 0.21073318 -0.23886454 0.21982315 -0.3559965 -0.026741
0.11071749 0.19161 -0.023798916 0.47622085 0.1771107 0.20833136 -0.12862821 -0.0615971
-0.017184058 -0.41154924 -0.30772996 0.33815515 -0.21452397 -0.028082244 -0.006349405 0.57050246
0.17888896 -0.4540132 -0.3008065 -0.011558047 -0.0012970894 0.10623665 0.015956184 -0.23971854
-0.4867792 0.03084524 0.34498292 0.13702749 0.118414916 -0.3001802 -0.1980253 -0.12013846
0.07709622 0.103918105 0.07245854 0.55103606 -0.16503067 0.2860184 0.019100986 -0.5211473
0.10841166 -0.026429573 0.01443047 -0.10630217 -0.16330186 -0.07764643 -0.27658567 0.020047704
-0.019838344 -0.01951712 -0.048394617 -0.03325205 -0.30031362 -0.027519686 -0.037493363 0.14748788
-0.1580473 0.080118634 -0.017430328 0.049151536 -0.016431194 0.09649591 -0.06622699 -0.05377108
0.25942847 0.08583321 -0.54547876 -0.47584358 0.24334154 0.19915685 -0.21493681 0.10513366
0.20018622 -0.09164807 0.200976 0.10377236 0.06370516 0.022189805 -0.08202413 0.3099072
0.10637061 0.20995004 -0.0072333105 -0.38763705 -0.14337738 -0.3563822 0.08551158 -0.029307475
-0.15109277 -0.00495537 0.040328532 0.07757519 -0.17587061 0.13704856 -0.38886094 0.18809976
0.059755392 0.24837756 -0.16015573 0.12247255 0.029635211 -0.0062368126 0.37541184 0.35308954
0.101839684 -0.03080678 -0.05901821 -0.14048292 0.16259192 0.035128552 0.009547833 -0.18538459
-0.04341917 -0.030972544 -0.07040552 -0.06984031 -0.00887279 0.05153334 0.20113559 -0.082846485
-0.20928273 -0.19330406 0.34143436 -0.004250497 0.030557182 -0.23612413 0.36772943 -0.011511889
-0.25513318 0.042577926 -0.18727005 -0.67667156 -0.16085686 -0.35601336 -0.4322816 -0.45126712
0.11329057 0.01955356 0.2981962 -0.41508424 -0.4317848 -0.055096783 -0.42799038 -0.7744822
-0.55634874 -0.025400009 -0.36951035 0.08826293 0.07666528 0.13851155 -0.7242906 -0.15292807
-0.25691748 -0.3930666 -0.34181094 0.14686823 0.018284742 -0.15243645 -0.17606439 -0.73590374
-0.10721352 -0.3415356 -0.011991935 0.5067648 -0.32123953 -0.22915636 0.21665715 -0.3619559
0.16018708 0.24807963 -0.011242244 -0.25178003 -0.45098382 -0.05502756 -0.706908 0.28167215
0.23452249 -0.054110657 -0.537822 0.044399913 -0.22399694 -0.51081 -0.41326803 -0.40936497
-0.50540894 -0.1653452 -0.24858618 0.36712378 -0.2604907 -0.48357955 -0.70666397 0.20614019
00000000: 03e6 183e e772 ab3b db66 8e3e 6b96 07bf
00000010: 43b8 32bf fc35 afbe b103 a9be 9eab 96be
00000020: 4617 483e 7693 173e 6b8b 01bf 49bf 45bf
00000030: 239a 5e3d 7f64 933d be2e 69bf 9f82 0d3e
00000040: e177 86be 1e66 783e d90b 2ebe c15e b1bd
00000050: 5cd0 bbbe 5831 dbbd db9e 69bd 57df 2cbb
00000060: cfa4 eebe 20f1 4e3d 1a10 b83c 1e8e 913c
00000070: 6cdc 373f f2b2 113f 6fb4 1ebf 3dfb 3c3c
00000080: bc1d 52be df55 93bd f321 82be 8c8a 6d3e
00000090: 4dbb b6be efc9 683d 941e 82be d683 27bf
000000a0: 3c9c aabe dab9 d6be effd e13d a9fa 38be
000000b0: 1d24 123e 73a1 babd e7e7 d1be e8e6 4e3e
000000c0: a9dc 4abf b6df acbe 2476 93be fa3c c63e
000000d0: ed5e 4cbf 95ae ffbe 93c4 22be 88c7 b5be
000000e0: ef6c d6be b7d4 fbbd a319 94bc 70ca 573e
000000f0: e898 74be 5219 613e 2c45 b6be f10f dbbc
00000100: dabf e23d 6935 443e f2f5 c2bc 38d3 f33e
00000110: 825c 353e d154 553e 1db7 03be 3e4d 7cbd
00000120: 95c5 8cbc 95b6 d2be c88e 9dbe ac22 ad3e
00000130: 2cac 5bbe bc0c e6bc ab0e d0bb 730c 123f
00000140: ab2e 373e 6b74 e8be 4f03 9abe f65d 3dbc
00000150: 1903 aaba 9a92 d93d 8bb6 823c c778 75be
00000160: 203b f9be 28af fc3c 9aa1 b03e ef50 0c3e
00000170: 8583 f23d 38b1 99be 25c7 4abe 270b f6bd
00000180: 9fe4 9d3d 04d3 d43d 2565 943d b310 0d3f
00000190: cdfd 28be 0171 923e ac79 9c3c e969 05bf
000001a0: ef06 de3d d582 d8bc c76d 6c3c f4b4 d9bd
000001b0: 9a38 27be 1705 9fbd a39c 8dbe 153b a43c
000001c0: 0684 a2bc 5ee2 9fbc 6f39 46bd 4d33 08bd
000001d0: b5c2 99be f770 e1bc a492 19bd 1007 173e
000001e0: 27d7 21be 3d15 a43d 0cca 8ebc 1f53 493d
000001f0: b69a 86bc a69f c53d 04a2 87bd 103f 5cbd
00000200: cfd3 843e 52c9 af3d 7fa4 0bbf c5a1 f3be
00000210: 862e 793e c6ef 4b3e 6518 5cbe 5150 d73d
00000220: 9efd 4c3e fcb1 bbbd a7cc 4d3e 9a86 d43d
00000230: da77 823d 65c7 b53c 44fc a7bd 28ac 9e3e
00000240: d6d8 d93d 25fd 563e 6805 edbb 5d78 c6be
00000250: 85d1 12be ba77 b6be b220 af3d 3b16 f0bc
00000260: 10b8 1abe a860 a2bb 882f 253d bedf 9e3d
00000270: 6d17 34be 7556 0c3e c818 c7be 399d 403e
00000280: 12c2 743d b056 7e3e ddff 23be e3d2 fa3d
00000290: 8bc5 f23c 2d5e ccbb fb35 c03e 27c8 b43e
000002a0: 5391 d03d 805e fcbc 14bd 71bd c1da 0fbe
000002b0: 7f7e 263e f5e2 0f3d 846e 1c3c 75d5 3dbe
000002c0: 4dd8 31bd 22ba fdbc c530 90bd 7008 8fbd
000002d0: 2e5f 11bc a014 533d 7df6 4d3e 6bab a9bd
000002e0: 364e 56be 80f1 45be 7cd0 ae3e c147 8bbb
000002f0: 0e53 fa3c 86ca 71be 0847 bc3e 5d9c 3cbc
00000300: d1a0 82be 3166 2e3d b8c3 3fbe 593a 2dbf
00000310: a9b7 24be 6247 b6be 0454 ddbe 7c0c e7be
00000320: e304 e83d ca2e a03c 2cad 983e ec85 d4be
00000330: e612 ddbe 2aad 61bd 8e21 dbbe 7744 46bf
00000340: df6c 0ebf ae13 d0bc 7630 bdbe 32c3 b43d
00000350: b002 9d3d f9d5 0d3e 1c6b 39bf 2d99 1cbe
00000360: b08a 83be 0740 c9be d801 afbe a064 163e
00000370: e2c9 953c 4d18 1cbe 394a 34be 3064 3cbf
00000380: c392 dbbd c1dd aebe d279 44bc 57bb 013f
00000390: 8279 a4be f7a7 6abe 5fdb 5d3e 4952 b9be
000003a0: 1508 243e 9608 7e3e 6431 38bc 50e9 80be
000003b0: 5ae7 e6be 9464 61bd ecf7 34bf 5537 903e
000003c0: aa26 703e 23a3 5dbd b4ae 09bf afdc 353d
000003d0: 745f 65be 72c4 02bf de97 d3be 4998 d1be
000003e0: 7b62 01bf 4150 29be 608d 7ebe a6f7 bb3e
000003f0: 095f 85be bd97 f7be eee7 34bf 6a16 533e

fc2.bias f4 [64]
-0.1402795 0.047302995 0.070547506 -0.037941754 0.2307715 0.016435636 -0.022686888 0.010444533
0.461678 0.756037 -0.009679435 -0.10300222 0.41343704 -0.04677943 0.05857227 0.14749143
0.12817428 0.042013716 -0.14192101 0.63267344 0.5329585 0.8133575 -0.118504405 -0.15260834
-0.22051932 -0.12601458 -0.120859355 -0.062131286 0.10258157 0.3406903 -0.20704688 0.028811317
-0.18348007 0.53875846 0.07441085 -0.10392421 -0.14100987 -0.23282768 -0.18091075 0.028136434
-0.23637363 0.8240854 0.66038585 -0.12993357 0.19690838 -0.25520298 0.61991423 0.043240458
-0.053877767 0.034335185 -0.05867116 0.5760739 0.050220437 -0.059814576 0.47994024 0.048522737
-0.20024183 -0.13044265 -0.057019815 0.1795488 0.14406884 0.52053523 0.04740553 0.30053818
00000000: 6ea5 0fbe c9c0 413d 367b 903d d068 1bbd
00000010: 5d4f 6c3e 07a4 863c dad9 b9bc 8c1f 2b3c
00000020: 0f61 ec3e a48b 413f 7e96 1ebc d4f2 d2bd
00000030: 05ae d33e ca9b 3fbd 7ae9 6f3d fe07 173e
00000040: 1e40 033e 9316 2c3d be53 11be e3f6 213f
00000050: f86f 083f 3238 503f 70b2 f2bd 5c45 1cbe
00000060: d1cf 61be f709 01be 1c85 f7bd 607d 7ebd
00000070: 4916 d23d f66e ae3e 1904 54be b605 ec3c
00000080: 33e2 3bbe 13ec 093f b764 983d 37d6 d4bd
00000090: e464 10be 616a 6ebe ab40 39be 617e e63c
000000a0: ee0b 72be 43f7 523f 0c0f 293f 4e0d 05be
000000b0: 5aa2 493e f7a9 82be b3b2 1e3f e81c 313d
000000c0: efae 5cbd 0da3 0c3d 2c51 70bd 9479 133f
000000d0: f2b3 4d3d 2100 75bd baba f53e c7bf 463d
000000e0: 320c 4dbe c292 05be 9c8d 69bd a4db 373e
000000f0: c886 133e cc41 053f 4d2c 423d 24e0 993e

fc3.weight f4 [4, 64]
-0.51036686 0.16081166 0.021658817 0.34131268 0.21748897 0.5241623 0.11502465 -0.20646542
0.31602514 0.22520012 0.0013227896 -0.16647205 0.12591067 -0.08844243 0.0054973993 -0.014984627
0.10277525 0.10942571 0.013278368 0.24308343 0.15512528 0.29596066 0.07335015 -0.1307277
0.51439637 -0.11331872 -0.28757426 0.1935893 0.40258068 0.10327714 -0.28323618 0.008025526
-0.37705982 0.15441386 0.33495954 -0.012626592 0.049211558 -0.23121855 -0.08150053 0.17869714
0.379847 0.23687346 0.18101197 -0.2834381 0.105116524 -0.39731905 0.25001538 0.24924843
-0.19389574 0.19640104 0.26383722 0.35533404 0.2105118 -0.572549 0.14197795 0.5261902
-0.1437571 -0.20365709 0.17344221 0.061184537 -0.14407758 0.18177448 0.10076311 0.21269864
-0.24289274 0.28282842 0.07610112 0.22638337 0.20570809 0.3434595 0.31649464 -0.10565618
0.26665387 0.23776329 0.05499445 -0.15498477 0.26512638 -0.13719822 0.08722474 0.12972523
0.008502508 0.04096815 -0.39839813 0.191302 0.18595871 0.2979989 -0.10867145 -0.16033451
0.71761346 -0.1769667 -0.24656248 -0.18766135 0.3469783 0.30408964 -0.20356056 0.11611968
-0.19275028 0.09262576 0.25935358 -0.051917326 0.071566455 -0.013606804 -0.067061245 0.2463821
-0.33472818 0.28154042 0.116980076 -0.8243495 -0.037149668 -0.1448274 0.233242 0.25481445
0.028650507 0.24075 -0.016387604 0.24859652 0.17137875 0.12647465 0.27313197 0.48913705
-0.0065469197 -0.15892795 0.16688533 0.04015416 0.03675806 0.180405 0.11598388 0.16779564
-0.4577988 0.06374316 0.25632107 -0.18942182 0.21583118 0.37192282 0.3639506 0.08709647
0.1910047 0.22428992 0.046277974 0.27805868 0.17094515 -0.3821934 -0.27081525 0.33011556
0.2168741 -0.62331575 -0.43236926 0.16817158 0.13818161 0.3200466 -0.5548021 -0.05338735
0.5876267 -0.054823313 -0.24614173 -0.67365426 0.24402525 0.30414256 -0.15366551 -0.21895234
-0.22873947 0.20579612 0.28105906 0.100737676 0.3956963 -0.20332126 -0.4062715 0.010490235
0.71282583 0.24575979 0.2589826 -0.0731378 0.04077036 -0.23574646 0.21574633 0.31198633
0.12437986 0.15966994 -0.30951598 0.3640924 -0.03616947 0.27286673 0.19023721 -0.050685663
-0.21031612 -0.37872133 0.017099695 0.16462626 -0.60966486 0.31501952 -0.5366677 0.1034363
-0.37220237 0.23377469 0.058440607 -0.8369973 0.14514384 0.15395214 0.25339863 0.21729362
0.34449965 0.27944735 0.5283766 -0.26829427 0.4302778 -0.9091884 0.29207927 0.14394784
0.22157991 0.01768102 0.114458874 0.21837978 0.0972664 0.32702398 -0.6455829 0.16100918
0.42025524 -0.91199505 -0.37794742 0.45212367 0.25354517 0.016872672 -0.37296382 -0.032145973
-0.3866704 0.21082634 0.28898057 -0.001446122 -0.23568769 -0.053481348 0.09811907 0.33667362
-0.13118738 0.28268594 0.22409032 -0.47563016 0.24825376 -0.3082896 0.19069245 0.19458249
-0.38742906 -0.03686794 0.406914 0.28474376 0.108963765 0.048232835 0.3086517 0.49280944
-0.8439163 -0.26194552 -0.20293139 -0.10348 -0.75116324 0.11483775 0.5973568 0.14238536
00000000: 67a7 02bf d0ab 243e d56d b13c 89c0 ae3e
00000010: 6eb5 5e3e 802f 063f 0b92 eb3d ac6b 53be
00000020: 0cce a13e dc9a 663e 7461 ad3a a677 2abe
00000030: baee 003e 4e21 b5bd 8723 b43b 1582 75bc
00000040: d57b d23d 961a e03d 838d 593c ddea 783e
00000050: 29d9 1e3e 2888 973e 9a38 963d 7bdd 05be
00000060: 7baf 033f a513 e8bd ef3c 93be 463c 463e
00000070: 0e1f ce3e f782 d33d 5504 91be 7f7d 033c
00000080: fc0d c1be ab1e 1e3e d17f ab3e c4df 4ebc
00000090: 0f92 493d 8ec4 6cbe c0e9 a6bd 62fc 363e
000000a0: 4e7b c23e f58e 723e 345b 393e cc1e 91be
000000b0: 5547 d73d 676d cbbe 0402 803e fb3a 7f3e
000000c0: 9b8c 46be 5b1d 493e ac15 873e 58ee b53e
000000d0: 6890 573e 9292 12bf ab62 113e 67b4 063f
000000e0: 1035 13be 7c8b 50be d69a 313e a39c 7a3d
000000f0: 1389 13be 1723 3a3e e45c ce3d accd 593e
00000100: e0b8 78be e3ce 903e e7da 9b3d 0bd1 673e
00000110: 24a5 523e ecd9 af3e 960b a23e 4462 d8bd
00000120: db86 883e 3878 733e dc41 613d 54b4 1ebe
00000130: a5be 873e b17d 0cbe e2a2 b23d b1d6 043e
00000140: 1a4e 0b3c 38ce 273d d7fa cbbe ace4 433e
00000150: f66b 3e3e 5093 983e 238f debd bb2e 24be
00000160: 84b5 373f c236 35be e07a 7cbe 4c2a 40be
00000170: 24a7 b13e a3b1 9b3e 2e72 50be 28d0 ed3d
00000180: 5460 45be 93b2 bd3d fec9 843e 43a7 54bd
00000190: 6f91 923d 13ef 5ebc 6857 89bd 974b 7c3e
000001a0: 7e61 abbe 1126 903e 4093 ef3d 9208 53bf
000001b0: 402a 18bd a24d 14be fed6 6e3e 0a77 823e
000001c0: 78b4 ea3c 2b87 763e 4c3f 86bc 1690 7e3e
000001d0: e97d 2f3e 9282 013e f4d7 8b3e 2c70 fa3e
000001e0: 8b87 d6bb 02be 22be fde3 2a3e b078 243d
000001f0: 9f8f 163d 17bc 383e f588 ed3d 9fd2 2b3e
00000200: 9b64 eabe c68b 823d 843c 833e cbf7 41be
00000210: d902 5d3e ab6c be3e bc57 ba3e a25f b23d
00000220: bc96 433e 42ac 653e f98d 3d3d b55d 8e3e
00000230: 3f0c 2f3e daae c3be 4ca8 8abe e804 a93e
00000240: 3e14 5e3e 9f91 1fbf 815f ddbe 2c35 2c3e
00000250: 7b7f 0d3e 26dd a33e 8307 0ebf b2ac 5abd
00000260: b46e 163f 698e 60bd 940c 7cbe 9b74 2cbf
00000270: c1e1 793e 93b8 9b3e 7e5a 1dbe 0b35 60be
00000280: ae3a 6abe 38bc 523e f9e6 8f3e 8e4f ce3d
00000290: b598 ca3e 7333 50be d102 d0be 3cdf 2b3c
000002a0: c17b 363f 74a8 7b3e 5e99 843e 45c9 95bd
000002b0: d2fe 263d 8567 71be 9bec 5c3e acbc 9f3e
000002c0: deba fe3d 8480 233e e178 9ebe 526a ba3e
000002d0: 7026 14bd 30b5 8b3e 8bcd 423e c59b 4fbd
000002e0: 1c5d 57be c3e7 c1be a914 8c3c c993 283e
000002f0: ff12 1cbf 3d4a a13e 0e63 09bf 69d6 d33d
00000300: 4f91 bebe a262 6f3e 6b5f 6f3d 7445 56bf
00000310: 96a0 143e a1a5 1d3e 77bd 813e 3882 5e3e
00000320: 4262 b03e b913 8f3e b043 073f de5d 89be
00000330: 5f4d dc3e 92c0 68bf 6a8b 953e 1067 133e
00000340: d8e5 623e c9d7 903c 6a69 ea3d f39e 5f3e
00000350: 9b33 c73d b06f a73e ec44 25bf 97df 243e
00000360: b22b d73e 8278 69bf 5382 c1be c17c e73e
00000370: acd0 813e 8f38 8a3c 1df5 bebe 7fab 03bd
00000380: aaf9 c5be dce2 573e 43f5 933e cd8b bdba
00000390: 1d58 71be 420f 5bbd a7f2 c83d 7c60 ac3e
000003a0: fc55 06be 36bc 903e ef77 653e cc85 f3be
000003b0: 3c36 7e3e 22d8 9dbe e244 433e a240 473e
000003c0: 1a5d c6be d602 17bd 0857 d03e efc9 913e
000003d0: 6528 df3d cb8f 453d 9807 9e3e 8551 fc3e
000003e0: e60a 58bf b91d 86be 3fcd 4fbe 52ed d3bd
000003f0: 3c4c 40bf 0e30 eb3d 60ec 183f 78cd 113e

fc3.bias f4 [4]
0.5997557 0.45711076 0.39507788 0.3668174
00000000: 9789 193f 6c0a ea3e a647 ca3e 7ecf bb3e
